ppo_critic.pth (torch, 89711 bytes, 5 tensors)

fc1.weight f4 [128, 105]
0	0x3c71adf5	0.014750947
1	0x3db71697	0.089398555
2	0x3dce27a5	0.10066155
3	0xbca99db4	-0.020705082
4	0xbc446bb7	-0.011988572
5	0x3d4cc4e2	0.04999245
6	0x3d11a921	0.035561685
7	0xbb4b3baf	-0.0031010916
8	0xbd8324fb	-0.06403538
9	0xbd6da157	-0.058015194
10	0x3c98d0ac	0.01865419
11	0xbc84a3c5	-0.016191373
12	0xbdbe34b3	-0.09287395
13	0x3d97d6cd	0.07414017
14	0x3dae040e	0.08496867
15	0xbc6ca979	-0.014444702
16	0xbcf972f0	-0.030450314
17	0xbc72f38f	-0.014828577
18	0x3ba1c0ef	0.0049363296
19	0x3dfe7ee3	0.124265455
20	0x3cb2f014	0.021842994
21	0x3c9de05b	0.01927202
22	0xbd8bda58	-0.06828755
23	0x3d9e8d88	0.07741839
24	0x3dd882aa	0.10571797
25	0xbd4bf069	-0.04978982
26	0xbd355745	-0.04427268
27	0xbcb06df4	-0.021536805
28	0xbd16ae0b	-0.036787074
29	0x3c2b76b2	0.010465311
30	0xbd37d7bf	-0.044883486
31	0x3ae813e3	0.0017706122
32	0x3d32bebe	0.043638937
33	0xbcee77aa	-0.029109795
34	0xbd93f9c8	-0.07225376
35	0xbd15c71d	-0.036566842
36	0x3df605a1	0.120127924
37	0x3cc2477e	0.02371573
38	0xbc65f153	-0.014034587
39	0xbdd9ed80	-0.10641003
40	0x3d3f7798	0.046744913
41	0xbd1cc069	-0.038269434
42	0x3d65e711	0.056128565
43	0x3d879eb8	0.0662207
44	0xbd468842	-0.04846979
45	0xbd896d83	-0.06710341
46	0xbe081fa2	-0.13293317
47	0x3c539917	0.012914917
48	0xbc245022	-0.010028871
49	0x3de4f76e	0.11180006
50	0x3d8276aa	0.063702896
51	0xbce5ace1	-0.028036537
52	0xbda82b0d	-0.08211336
53	0x3d27a347	0.040927198
54	0xbcf0e477	-0.029405816
55	0x3d797243	0.060899984
56	0x3d268ae3	0.040659796
57	0xbb4ae54a	-0.003095942
58	0xbd2c3046	-0.042038225
59	0xbd3232f5	-0.043505628
60	0x3dda3eab	0.10656484
61	0x3d56d2a7	0.052446987
62	0x3d84054c	0.06446323
63	0x3d97f0c5	0.0741897
64	0xbe0ede3a	-0.1395196
65	0xbc949c3d	-0.018140906
66	0x3dad1c43	0.08452656
67	0xbd70c3c1	-0.058780435
68	0x3e091a5b	0.1338896
69	0xbd83697f	-0.06416606
70	0x3d5c3b0d	0.053767253
71	0xbdc46f3f	-0.09591531
72	0x3d8b47bf	0.06800794
73	0xbdaf1d3c	-0.08550498
74	0xbcf46944	-0.02983535
75	0x3a99c8b9	0.0011732794
76	0x3d31a92a	0.043374218
77	0xbd8af727	-0.06785422
78	0x3d01f324	0.031726018
79	0xbddd0213	-0.10791411
80	0xbd391e27	-0.04519477
81	0xbd7ee3d1	-0.06222898
82	0x3c5c4eab	0.01344649
83	0x3d748207	0.059694316
84	0x3d24a0b5	0.040192325
85	0x3d1f4620	0.038885236
86	0xbd90dff0	-0.07073963
87	0x3dacb548	0.08433014
88	0xbd0a2da8	-0.033734947
89	0xbc275470	-0.010213003
90	0x3d2f661c	0.04282199
91	0x3d95453e	0.072885975
92	0xbc1edbb3	-0.009695935
93	0x3dd16eb0	0.1022619
94	0xbe0bd843	-0.13656716
95	0xbe0cb440	-0.13740635
96	0xbe25ec42	-0.16203406
97	0xbd9692ae	-0.07352196
98	0x3d6d05d2	0.05786688
99	0x3dd9e2b7	0.106389455
100	0x3b35ae35	0.0027722244
101	0xbe27adc8	-0.16374886
102	0xbcd20d9b	-0.025641253
103	0xb89a7920	-7.3658535e-05
104	0x3b80a5dd	0.0039260224
105	0xbd9af909	-0.07567031
106	0x3d6d3947	0.057915952
107	0xbcaaf892	-0.02087048
108	0x3cd4ac38	0.025961027
109	0xba5f3f72	-0.0008516229
110	0xbda15ef3	-0.07879438
111	0x3dd01c98	0.10161704
112	0x3d16af12	0.036788054
113	0xbc1b28b0	-0.00947015
114	0xbc92d924	-0.017925806
115	0xbd4dc796	-0.050239168
116	0xbd66e30f	-0.056368884
117	0x3d8d46b7	0.068982534
118	0x3d126e5a	0.03574977
119	0xbc4dfd85	-0.012572651
120	0xbdab6c99	-0.08370323
121	0x3c46d615	0.012136002
122	0xbcf38e36	-0.029730897
123	0x3db40197	0.08789366
124	0x3d463ead	0.048399616
125	0xbd3dd5c3	-0.046346437
126	0xbd89e062	-0.06732251
127	0x3d263bcd	0.040584374
128	0x3d412106	0.047150634
129	0xbda76064	-0.08172682
130	0x3d7341e2	0.059389003
131	0xbd2757e4	-0.040855303
132	0x3d1ac41a	0.037784673
133	0x3dabae5b	0.08382865
134	0x3db0432b	0.08606561
135	0xbc5b98c8	-0.013403125
136	0xbcef19a0	-0.029187024
137	0x3dbbb435	0.09165231
138	0x3dc30629	0.09522659
139	0xbd9fa9f7	-0.0779609
140	0x3cb9c679	0.022677647
141	0x3bbf9a6e	0.005847267
142	0x3dab5789	0.083663054
143	0xbcd82a07	-0.026387228
144	0x3d0c3aee	0.034235887
145	0xbd9d2515	-0.076730885
146	0xbd3c86d6	-0.046027027
147	0x3d1e692e	0.038674526
148	0x3d0ad26e	0.033892088
149	0x3aa0c200	0.0012264848
150	0xbdb877e5	-0.09007243
151	0x3cd8c218	0.026459739
152	0x3d3d2be6	0.046184443
153	0xbd7b1fe8	-0.061309725
154	0xbdb66c6b	-0.08907398
155	0xbd3aa837	-0.04557058
156	0x3dc186f9	0.09449572
157	0x3c9bd6ec	0.019023381
158	0xbd94bdee	-0.07262789
159	0xbdb525f1	-0.088451274
160	0x3d91cbd5	0.07118956
161	0xbd5b1e94	-0.05349596
162	0xbba1f3e0	-0.0049424022
163	0x3d5122e6	0.051058672
164	0x3cc900c0	0.02453649
165	0x3db2fe4b	0.08739909
166	0x3cc0652c	0.023485743
167	0xbce0ce84	-0.027442224
168	0x3ce583bd	0.02801692
169	0x3d7ad5af	0.06123894
170	0x3d40f7ac	0.0471112
171	0x3d2ce2f6	0.042208634
172	0xbd7e7057	-0.062118854
173	0xbd983280	-0.07431507
174	0x3d4f692a	0.0506374
175	0x3c6cb663	0.014447781
176	0x3d9c1cb5	0.07622663
177	0x3d5f6430	0.054538906
178	0xbc362d2d	-0.011119169
179	0xbdd58ed2	-0.104276314
180	0x3d828b8c	0.06374273
181	0xbd2ae5d6	-0.041723095
182	0x3cfcbfee	0.030853238
183	0x3cbc7706	0.023005974
184	0x3d8cf26f	0.06882178
185	0xbc679f90	-0.014137164
186	0xbdb5e314	-0.08881202
187	0x3dbe3053	0.09286561
188	0xbd84d468	-0.06485826
189	0xbc50b2a0	-0.0127379
190	0xbc62d840	-0.013845503
191	0x3ccee2f8	0.025254712
192	0xbd40023b	-0.046877127
193	0x3dc466cd	0.0958992
194	0xbdc2273e	-0.09480141
195	0x3b8e1df0	0.004337065
196	0xbcde30cc	-0.027122878
197	0xbdb2cb59	-0.08730192
198	0xbd842e43	-0.06454136
199	0x3dbe9935	0.09306566
200	0xbda20205	-0.079105414
201	0xbca804f0	-0.020510167
202	0xbd6426bb	-0.055701
203	0x3d1d0722	0.03833688
204	0x3d7961f6	0.06088444
205	0xbc9372cc	-0.017999075
206	0xbd91f68b	-0.071271025
207	0xbc51ed90	-0.012812987
208	0xbbb06060	-0.0053825825
209	0xbdc5c070	-0.09655845
210	0xbcab489d	-0.020908648
211	0x3cf59412	0.029977832
212	0xbd0344af	-0.032047924
213	0x3cd25f18	0.02568011
214	0x3da825b1	0.08210314
215	0xbdb68bd3	-0.08913388
216	0x3db7cf99	0.08975143
217	0xbd866c84	-0.065636665
218	0xbcaa20e3	-0.020767635
219	0x3df4ffbd	0.11962841
220	0x3d6bd8af	0.057579692
221	0xbb8ac3ad	-0.004234752
222	0x3d6e9b64	0.05825366
223	0xbce4aab7	-0.027913434
224	0x3bf7313a	0.00754371
225	0xbc8fe4db	-0.017565181
226	0xbdaf5b55	-0.08562342
227	0x3d175126	0.036942624
228	0xbd940c36	-0.072288916
229	0x3d54836e	0.051883154
230	0x3c988ab8	0.018620834
231	0xbcfdd013	-0.030983007
232	0x3d739cc9	0.059475694
233	0x3858a705	5.1653962e-05
234	0xbd6084bc	-0.054814085
235	0x3d5bbedc	0.053648815
236	0x3da9eeaf	0.082974784
237	0xbcf9d423	-0.030496662
238	0x3c6e74b0	0.014554188
239	0xbd7f1f10	-0.062285483
240	0xbd959768	-0.07304269
241	0x3da3054f	0.07959997
242	0xbdc10c1e	-0.09426139
243	0x3cb317bc	0.021861903
244	0xbd2225fc	-0.039587006
245	0xbc3d77e2	-0.011564227
246	0xbd22581a	-0.0396348
247	0x3c57c21f	0.013168841
248	0xbd64c6bf	-0.0558536
249	0xbd028175	-0.03186174
250	0x3bc4f504	0.0060106535
251	0x3cd48290	0.025941163
252	0xbcaa174c	-0.020763062
253	0x3cd742cf	0.026276974
254	0xbc7da81e	-0.015481977
255	0x3da3fe9d	0.08007548

fc1.bias f4 [128]
0	0xbc09280b	-0.008371363
1	0xbd06cffa	-0.032913186
2	0xbb7376ce	-0.003714967
3	0x3d2e63ac	0.042575523
4	0xbdbdc4bf	-0.09266042
5	0x3d6546a0	0.055975556
6	0xbc762166	-0.015022611
7	0xbd56d1d8	-0.052446216
8	0xbc740608	-0.014894016
9	0xbdd0d6ed	-0.10197244
10	0xbcf0c945	-0.029392848
11	0x3cc1a2ee	0.023637261
12	0x3d7f1764	0.062278166
13	0xbdf53843	-0.11973622
14	0xbc98b9d0	-0.01864329
15	0xbd12d7b0	-0.035850227
16	0x3dc9b4c4	0.098489314
17	0xbd2215ee	-0.039571695
18	0xbda70189	-0.0815459
19	0xbd1db815	-0.038505632
20	0xbc3c2efe	-0.011485813
21	0x3d1b012f	0.037842926
22	0x3d7326c4	0.05936314
23	0x3b9fee97	0.004880737
24	0xbdc922c9	-0.09821088
25	0xbe1bd905	-0.15219505
26	0x3d889f01	0.066709526
27	0x3e0e4163	0.1389213
28	0xbda5b5cc	-0.080913156
29	0x3d9af4aa	0.07566197
30	0x3c9c9a4f	0.019116549
31	0xbd04aa44	-0.03238894
32	0x3d1fb010	0.038986266
33	0x3d905d2d	0.07049022
34	0x3c5aa5af	0.013345166
35	0x3c2de9b8	0.010614805
36	0xbd4ce640	-0.05002427
37	0xbd926344	-0.0714784
38	0xbc472ecd	-0.012157154
39	0xbcc73f59	-0.024322199
40	0xbe269a18	-0.1626972
41	0x3c8ddc83	0.017317062
42	0xb8ec54e6	-0.000112691705
43	0xbc982830	-0.01857385
44	0x3d3c7ce0	0.046017528
45	0x3e060f82	0.13091853
46	0xbcd2ed17	-0.025747819
47	0x3dfb2a28	0.122639
48	0x3d885850	0.06657469
49	0xbe06e0b2	-0.13171652
50	0xbcb1d121	-0.021706166
51	0x3b37dfb2	0.0028056917
52	0x3d2cabc5	0.042156
53	0xbcd62694	-0.026141442
54	0x3c6edc6b	0.014578919
55	0xbd890bd9	-0.06691713
56	0x3e021094	0.12701637
57	0x3d45b031	0.048263732
58	0xbd4a8c73	-0.04945035
59	0xbd7a389a	-0.061089136
60	0x3e015802	0.12631229
61	0x3c8f8765	0.017520616
62	0xbc4a7076	-0.012355914
63	0xbd23365a	-0.039846756
64	0xbba8977d	-0.005145012
65	0xbd01d11c	-0.031693563
66	0xbd807a61	-0.06273342
67	0x3d255858	0.040367454
68	0x3ce59add	0.028027946
69	0xbc4ae516	-0.01238372
70	0xbc4842d0	-0.012222961
71	0x3cd0e8e0	0.025501668
72	0x3e064c89	0.13115133
73	0x3d823c27	0.063591294
74	0x3d3a2e2f	0.0454542
75	0xbca5d565	-0.020243356
76	0x3d26837e	0.040652744
77	0x3d9a80a2	0.07544066
78	0xbda92cf1	-0.08260525
79	0xbda5bff6	-0.08093254
80	0x3aeda9fa	0.0018132322
81	0xbdebc9ce	-0.115131006
82	0x3de3946b	0.11112293
83	0xbd8c59b6	-0.068530485
84	0xbddcfd55	-0.10790507
85	0x3df6961e	0.12040351
86	0x3e08fcd5	0.13377698
87	0xbda23f5c	-0.07922241
88	0x3d95ba25	0.07310895
89	0xbbf0640f	-0.0073361467
90	0xbd98b8a2	-0.07457091
91	0xbdb8ff11	-0.09033025
92	0x3db69ed0	0.0891701
93	0xbdd49a34	-0.103809744
94	0xbd1b03e4	-0.037845507
95	0xbcc95f50	-0.024581581
96	0x3c9e7db0	0.019347042
97	0xbcdfadf3	-0.027304625
98	0xbd2882a9	-0.041140232
99	0x3d0c4861	0.034248713
100	0x3da6de3a	0.08147855
101	0x3e1201d5	0.14258511
102	0xbde9852a	-0.11402352
103	0x3d4b6404	0.04965593
104	0xbd8f696e	-0.07002531
105	0x3d0fef80	0.035140514
106	0xbc8190c2	-0.015816096
107	0x3cc07411	0.023492845
108	0xbca744ee	-0.02041861
109	0xbc7694e5	-0.015050148
110	0xbdbe218d	-0.09283743
111	0xbae86fbe	-0.0017733497
112	0xbdc89bb5	-0.09795324
113	0x3d5dc6a8	0.05414453
114	0x3e04ed92	0.12981251
115	0xbe237794	-0.15963584
116	0x3dc08bad	0.09401641
117	0xbd985b76	-0.0743932
118	0xbe1c6a4a	-0.15274921
119	0x3d5a5a2f	0.053308662
120	0xbdf2dcf6	-0.11858551
121	0x3dcedb41	0.10100413
122	0xbdc9e530	-0.09858167
123	0x3da39a1e	0.0798838
124	0x3da06898	0.0783245
125	0xbc837a21	-0.016049447
126	0xbd991d4e	-0.074762926
127	0x3cb51b43	0.022107726

fc2.weight f4 [64, 128]
0	0xbd24588e	-0.040123515
1	0x3c748170	0.014923438
2	0xbdabaab2	-0.08382167
3	0x3d147544	0.036244646
4	0x3d0d2ef0	0.03446859
5	0xbda81b04	-0.08208278
6	0xbce8fae8	-0.028439954
7	0xbd009c21	-0.031398896
8	0x3d16962a	0.0367643
9	0x3cc77cdc	0.02435153
10	0xbd7d566b	-0.061849993
11	0x3d2264ea	0.03964702
12	0x38385800	4.3950975e-05
13	0x3d10f022	0.03538526
14	0x3ced2c2c	0.028951727
15	0xbb58b320	-0.0033065751
16	0x3bd705f0	0.006561987
17	0x3d036a0e	0.032083564
18	0xbd44f681	-0.048086647
19	0x3d019682	0.031637676
20	0xbc52ea00	-0.012873173
21	0xbcc74fc4	-0.024330027
22	0x3cb57da4	0.022154637
23	0x3d1eb7b2	0.038749404
24	0xbce43f76	-0.027862292
25	0xbd345ba4	-0.044032708
26	0x3d9addf5	0.07561866
27	0x3d1692ce	0.036761098
28	0xbd9ee2b1	-0.07758082
29	0x3c927a00	0.01788044
30	0x3ce99198	0.028511807
31	0xbc0827b8	-0.008310251
32	0x3d40bffe	0.047058098
33	0xbd8e74da	-0.069558814
34	0xb9175400	-0.00014431775
35	0x3d8b08df	0.067888014
36	0x3ceb1afc	0.02869939
37	0x3da9c1cd	0.08288918
38	0xbcfa1fae	-0.030532684
39	0xbd92064f	-0.071301095
40	0xbd6bf359	-0.05760512
41	0xbd15eac0	-0.03660083
42	0x3d83dd31	0.06438673
43	0x3d8d2045	0.068909205
44	0xbcd3f044	-0.025871404
45	0xbd7cf0d4	-0.06175311
46	0xbbab4520	-0.005226746
47	0xbda3eeb3	-0.08004513
48	0xbb83f100	-0.004026532
49	0x3d13e5b6	0.03610774
50	0xbd4e38d3	-0.05034716
51	0xbd986705	-0.074415244
52	0x3d814d43	0.06313565
53	0x3c29cc90	0.010363713
54	0x3d9bad15	0.07601372
55	0xbd5d430e	-0.054019026
56	0xbb176720	-0.0023102239
57	0xbd76c96d	-0.06025069
58	0xbd40d19f	-0.04707491
59	0x3d60341e	0.054737203
60	0x3ccb1814	0.024791755
61	0x3db1d251	0.08682693
62	0x3d3c1aa2	0.045923837
63	0xbb805ac0	-0.0039170682
64	0x3ce91b20	0.028455317
65	0x3cc7ea44	0.024403699
66	0xbc557200	-0.013027668
67	0xbd28684d	-0.041115094
68	0xbc539370	-0.01291357
69	0x3c471508	0.01215101
70	0x3bd45350	0.006479658
71	0xbda0d2f2	-0.078527346
72	0xbb667540	-0.0035165101
73	0x3d39b6d6	0.04534038
74	0xbcab7a18	-0.020932242
75	0xbd85e09d	-0.06536982
76	0x3d938333	0.07202759
77	0x3d8a8823	0.06764247
78	0xbd6c4688	-0.05768445
79	0x3d2248ba	0.03962014
80	0xbb5295e0	-0.003213279
81	0x3cf54c9c	0.029943757
82	0x3cb40ac0	0.021977782
83	0x3c90132c	0.017587267
84	0xbd35eb3c	-0.04441379
85	0xbb022e80	-0.0019864142
86	0x3d0924c4	0.033482328
87	0x3bd06170	0.0063592717
88	0xbd43f7c1	-0.0478437
89	0x3ce1b744	0.027553208
90	0xbd450c7d	-0.048107613
91	0x3d5d5cde	0.054043643
92	0xbce4c0f2	-0.027924035
93	0x3d7c913a	0.061661936
94	0xbd2bbc00	-0.041927338
95	0x3da9d4e9	0.082925625
96	0x3d85f08b	0.065400206
97	0x3d03c20a	0.032167472
98	0xbcf2a064	-0.029617496
99	0xbb580dc0	-0.003296718
100	0xbcc03588	-0.023463026
101	0xbcaabf88	-0.020843282
102	0x3d2aba7a	0.041681744
103	0x3a407c00	0.0007342696
104	0x3daec74b	0.08534106
105	0x3c1e8aa8	0.009676613
106	0x3cb3b67c	0.021937601
107	0xbd91f0d5	-0.07126013
108	0x3c54b1b0	0.012981817
109	0x3d8d9d4d	0.06914768
110	0x3d0b0ac6	0.03394582
111	0xbcc70bc0	-0.024297595
112	0x3d7dbbb2	0.06194658
113	0x3d2b1a62	0.041773207
114	0xbd5e3063	-0.054245364
115	0x3d68eece	0.056868367
116	0x3d4215c2	0.04738403
117	0x3ce5f704	0.028071888
118	0x3c3fe698	0.011712693
119	0xbd2cef75	-0.04222055
120	0xbd937837	-0.072006635
121	0xbd90ef05	-0.07076839
122	0xbd633470	-0.05546993
123	0x3ca5a6c4	0.020221122
124	0x3c3b0360	0.011414379
125	0x3d403e6a	0.046934523
126	0xbd0affa5	-0.033935208
127	0xbd54d77e	-0.051963322
128	0x3d9d8a6b	0.07692417
129	0x3d3da7f6	0.04630276
130	0x3d342fbe	0.043990843
131	0xbdae0876	-0.084977075
132	0x3d3a03f2	0.04541392
133	0x3ce1d15a	0.027565647
134	0x3d9db043	0.07699635
135	0x3d3d3832	0.04619617
136	0x3d664106	0.056214355
137	0xbd2ecfd1	-0.042678658
138	0xbcc9e994	-0.024647512
139	0xbde89109	-0.11355788
140	0xb926e8f6	-0.00015917778
141	0xbce11714	-0.027476825
142	0x3d15d5f2	0.036580987
143	0xbde3bc4c	-0.11119899
144	0x3cd3ace8	0.025839284
145	0x3c196e24	0.0093646385
146	0xbc96b080	-0.018394709
147	0xbd20836d	-0.039187837
148	0xbd0f4437	-0.034977164
149	0x3d31f372	0.04344506
150	0xbcf17bb3	-0.02947793
151	0xbda7dc88	-0.0819636
152	0x3d88215b	0.06646987
153	0xbc949fcc	-0.018142603
154	0x3ce2ff50	0.027709633
155	0xbd4d2d47	-0.050092008
156	0xbd88d124	-0.066805154
157	0xbd237137	-0.039902892
158	0xbca2bcc4	-0.019865401
159	0x3cf9051b	0.030397942
160	0xbbf6eb20	-0.0075353533
161	0x3d07d130	0.03315848
162	0x3d62be02	0.055356987
163	0xbd3b6a2b	-0.045755547
164	0x3d4a46ca	0.049383916
165	0xbb05d5c0	-0.0020421594
166	0x3db243e9	0.08704359
167	0xb9b8e7aa	-0.00035267818
168	0x3d294d12	0.041333266
169	0x3c4ec64d	0.012620521
170	0xbda0b80d	-0.07847605
171	0xbd3ca60b	-0.04605679
172	0xbe0059d9	-0.12534274
173	0x3b765323	0.0037586174
174	0xbd4502de	-0.048098437
175	0x3c03caa5	0.00804392
176	0xbc396dcd	-0.011317682
177	0xbd1fd5ce	-0.03902226
178	0xbdc6c919	-0.09706325
179	0x3a43ce00	0.0007469356
180	0xbd828aa1	-0.063740976
181	0x3cd2274f	0.02565351
182	0xbb7d18c0	-0.0038619488
183	0xbcac95e8	-0.021067575
184	0xbc2c9f40	-0.010536015
185	0xbd8936ba	-0.066998914
186	0xbda8e502	-0.08246805
187	0xbc53a04c	-0.012916636
188	0xbd5acf5b	-0.053420406
189	0xbdd0baee	-0.10191904
190	0x3d26355a	0.040578224
191	0xbe01d0ad	-0.1267726
192	0xbc2c7a0a	-0.010527143
193	0xbc327c48	-0.010893889
194	0xbde1a087	-0.11016946
195	0xbda2b76e	-0.07945143
196	0xbd08e8f0	-0.03342527
197	0x3cfb957e	0.030710932
198	0x3da033b1	0.07822359
199	0xbda4bc21	-0.08043695
200	0xbd7d49be	-0.061837904
201	0xbd866fdf	-0.065643065
202	0xbd936745	-0.071974315
203	0xbded269e	-0.11579631
204	0xbd3cc3ee	-0.04608529
205	0xbdaa9283	-0.08328726
206	0xbd9978f4	-0.07493773
207	0x3c99807c	0.018738024
208	0x3c5fe966	0.013666486
209	0x3da2ca7d	0.07948778
210	0xbdb5dbf7	-0.088798456
211	0xbd383836	-0.044975482
212	0xbd325604	-0.043539062
213	0x3cde4bdd	0.027135784
214	0xbdf8e850	-0.12153685
215	0x3a1cad15	0.0005976719
216	0x3c699c8e	0.014258517
217	0x3d03470a	0.03205017
218	0x3d4e8e52	0.050428696
219	0x3d528efa	0.051405884
220	0xbdb88ad8	-0.09010857
221	0x3c20ff20	0.009826452
222	0xbc92574c	-0.017863892
223	0xbca1a3f0	-0.019731492
224	0x3d1db00a	0.038497962
225	0xbd447b22	-0.04796899
226	0xbd786d04	-0.06065084
227	0x3c3e51c4	0.011616174
228	0xbbad2af1	-0.00528466
229	0xbddb6de8	-0.10714322
230	0xbd1759c3	-0.036950838
231	0x3b722a2e	0.003695141
232	0x3d0bd4e2	0.034138568
233	0xbccfb860	-0.025356472
234	0xb8ae7335	-8.3184255e-05
235	0xbc949dad	-0.018141592
236	0xbd5bd098	-0.053665727
237	0xbcb0792c	-0.021542154
238	0x3d1a7161	0.037705783
239	0x3d2751f2	0.040849634
240	0x3d69be66	0.057066344
241	0xbd93c887	-0.07215982
242	0xbdbfd17e	-0.09366129
243	0x3c3a87d8	0.011384927
244	0xbd2cef28	-0.042220265
245	0x3d25b302	0.04045392
246	0xbd21d9d7	-0.03951439
247	0xbc98d0c4	-0.018654235
248	0xbda64b53	-0.08119836
249	0xbd4e4e12	-0.050367422
250	0x3da656ed	0.081220485
251	0xbd78c6b4	-0.060736373
252	0xbc907087	-0.017631782
253	0xbcb38b11	-0.021916898
254	0x3d055098	0.032547563
255	0xbd5c740e	-0.053821616

fc2.bias f4 [64]
0	0xbcec80b6	-0.028869968
1	0x3b87a084	0.004139008
2	0xbd17f091	-0.037094656
3	0xbda6f27c	-0.08151719
4	0x3cd0938d	0.025460983
5	0xbd857949	-0.06517274
6	0xbd512197	-0.051057424
7	0x3d9704fd	0.07373998
8	0x3c844d65	0.016150186
9	0x3cad0310	0.021119624
10	0x3caa3500	0.020777225
11	0xbd93bba8	-0.07213527
12	0x3cab3c1b	0.020902684
13	0xbda897dc	-0.0823209
14	0xba3cc2e4	-0.0007200672
15	0x3d171c94	0.03689249
16	0x3cab9718	0.02094607
17	0xbda228d1	-0.07917941
18	0x39f81496	0.00047317584
19	0xbca2f6b2	-0.019893024
20	0xbdc44fe2	-0.09585549
21	0x3ce51ea8	0.02796872
22	0xbda7202d	-0.08160434
23	0x3c6ab207	0.014324672
24	0xbcb77c78	-0.022398219
25	0x3d972bd0	0.073814034
26	0x3e0b01d0	0.1357491
27	0xbd7636a5	-0.060110707
28	0x3c5a9972	0.013342248
29	0xbd938e96	-0.072049305
30	0xbdcf58cf	-0.10124361
31	0xbda5b59f	-0.08091282
32	0xbc9f5f44	-0.019454606
33	0xbdd26325	-0.102728166
34	0xbdc7fb26	-0.097647
35	0xbd64624c	-0.055757806
36	0xbbd4567a	-0.0064800354
37	0x3de8b3d2	0.11362423
38	0xbd7fb727	-0.062430527
39	0xbd209cc7	-0.039212015
40	0x3e0c309b	0.13690417
41	0x3dd5d350	0.10440695
42	0xbdc579c4	-0.096423656
43	0xbd837792	-0.064192906
44	0xbc0e1cc3	-0.0086738495
45	0xbddc2909	-0.10750014
46	0x3caf4a57	0.021397753
47	0xbd710773	-0.058844995
48	0x3d2cf442	0.04222513
49	0xbdc4cf70	-0.09609878
50	0xbd2eca88	-0.042673618
51	0xbd2473c4	-0.040149465
52	0xbd9976eb	-0.07493385
53	0x3ba6d0f0	0.0050908253
54	0xbd52b949	-0.051446233
55	0xbd2de3fe	-0.04245376
56	0x3d63efab	0.055648487
57	0x3dc56432	0.09638251
58	0xbd70f6dd	-0.058829177
59	0x3ca8c00e	0.020599391
60	0xbd9d3921	-0.07676912
61	0x3d149a2b	0.03627984
62	0x3d0ab7b7	0.03386661
63	0xbdad858c	-0.08472738

fc3.weight f4 [1, 64]
0	0x3dbd7c44	0.092522174
1	0xbdba6fe8	-0.09103376
2	0xbba702db	-0.005096776
3	0x3dad9d1e	0.08477233
4	0xbda6502f	-0.081207626
5	0xbc0ed9ec	-0.008718949
6	0xbc2ee3e7	-0.010674453
7	0x3d96c3fc	0.073616
8	0xbc04320e	-0.008068575
9	0x3aaef4b2	0.0013348071
10	0x3da6306b	0.08114704
11	0x3d382e34	0.044965938
12	0x3d5a97e5	0.053367514
13	0xbd9980e2	-0.074952856
14	0xbd8e35f4	-0.069438845
15	0x3d061e72	0.03274388
16	0xbc77374c	-0.015088867
17	0xbca4a25e	-0.020096954
18	0xbc33496e	-0.0109428
19	0x3d57f877	0.05272719
20	0x3d52924a	0.051409043
21	0xbd649c48	-0.055813104
22	0xbc63b4a0	-0.013898045
23	0x3dfcb9d3	0.12340131
24	0xbdd046c0	-0.101697445
25	0x3d1718ee	0.03688901
26	0x3db910c3	0.090364
27	0xbc8e4bc5	-0.017370114
28	0xbd0b1e9b	-0.033964735
29	0x3dee685a	0.11640997
30	0x3db2fb53	0.087393425
31	0x3c9b0c20	0.01892668
32	0xbc4b4223	-0.012405905
33	0x3d6a7246	0.057237886
34	0xbcb26ecd	-0.02178135
35	0xbd276d39	-0.040875647
36	0xbd1a62d3	-0.037691902
37	0x3b421eb8	0.002962036
38	0xbd9e98cc	-0.077439874
39	0x3c555e99	0.013023042
40	0x3d8fe0a6	0.0702527
41	0x3d7739ec	0.060357973
42	0xbc76a80c	-0.015054714
43	0x3cee74d9	0.029108452
44	0x3bd7c1e4	0.006584393
45	0x3d8939be	0.067004666
46	0x3abd5573	0.0014445022
47	0x3d743a20	0.059625745
48	0x3c98bdb3	0.018645143
49	0x39bdc997	0.00036199085
50	0xbb106c78	-0.0022037309
51	0xbc8a38d8	-0.016872808
52	0xbc993f78	-0.018707022
53	0x3de0ca96	0.1097614
54	0x3d917c1b	0.07103749
55	0xbd186808	-0.037208587
56	0xbdad4299	-0.08459968
57	0x3de4db5c	0.11174652
58	0xbc307741	-0.01077062
59	0xbc99cece	-0.01877537
60	0x3913c273	0.0001409145
61	0x3c06290e	0.008188499
62	0x3c99c947	0.018772734
63	0xbd79ba85	-0.060968895
