ppo_actor.pth (torch, 90215 bytes, 6 tensors)

fc1.weight f4 [128, 105]
00000000: ec4c da3c 376f c63d 59de a23d 362f 703d
00000010: 3ca9 ca3c 3e30 6e3d 9e29 1f3d 3924 c4bd
00000020: e829 8cbd 9aed 5b3d 88b5 99bd 06dc 3b3d
00000030: d54e 51bd 047b 0bbd 6eef b1bd 081d b53c
00000040: 054b b23d 66b7 613d 768f 7c3d 12db 1f3d
00000050: 5ef2 6e3d e5eb a13d e7af 16bd 6aea 6d3d
00000060: e1be 973d c07e 6bbb 2a4c 0a3d 62e7 183d
00000070: 3bc6 b93d 784d 20bc 85a9 97bd f831 08bc
00000080: f8ed 98bd 6ccc 05bd 8c76 e63c 8fc3 bd3d
00000090: 5f84 9abd 7f02 a4bd 175b bf3d b86b d8bc
000000a0: cdf9 2ebd 5714 b83d 10c6 b33c 5568 c03d
000000b0: 0803 cfbc 1482 9ebd 82cf 01bd dfab 953d
000000c0: acbc f33c 8a68 123d 2028 773b 4a8d 793d
000000d0: e0bd 753b df03 a83d ea95 643d f6ab 303d
000000e0: 8cb4 ee3c c01f 17bb 468b 27bd f5e3 79bd
000000f0: ee73 253d 0239 603d 9e06 bcbd a7e0 a8bd
00000100: c134 c6bd 6caf fb3c eaec 5f3d 32e2 373d
00000110: 34d7 a5bd 30c6 223c 9a8f 0bbd d089 16bc
00000120: 9e34 83bd f280 0e3d b0c3 90bc 9ad2 183d
00000130: d484 fc3c 0d85 a7bd e359 b4bd ed81 b5bd
00000140: b0e5 8d3c f801 4f3c ae71 073d 320d 80bd
00000150: c205 7dbd 5f67 973d abd9 a9bd c059 97bc
00000160: 3b89 67bd 1e2f 653d 34b1 fa3c 6070 b4bd
00000170: 11c9 19bd b4b6 f9bc 0097 75bc 31fa 78bd
00000180: 382b 473c 7253 623d a216 493d b861 65bc
00000190: e3dc ba3d b8c1 51bc bacf 7c3d 2272 493d
000001a0: 3349 6fbd 10ed 90bc bc9a a7bd 3942 5bbd
000001b0: 8475 a1bd 10bd af3c f63a 503d 4011 30bc
000001c0: 56fd 533d 08ca a43c 208b e1bc 00d4 b6bc
000001d0: ea2d 13bd 4142 823d 9c02 a9bc d032 b7bb
000001e0: e357 4bbd 94ba adbd 745b d8bc a455 a7bc
000001f0: 2061 0ebb 645e 93bc 90e5 abbb be56 23bd
00000200: dea0 6c3d 9895 963c 6f61 963d b8bc 293c
00000210: f805 8a3c 0847 9d3c 4096 ce3c 2257 12bd
00000220: 0640 bdbd c6c8 793d 5cb4 b7bc 57ef 38bd
00000230: f048 19bc ee4e 1a3d b570 8f3d 603d a13c
00000240: 317c 47bd d050 85bc a0ec 6fbb c0b8 0e3b
00000250: 24a6 f13c eb8d be3d b4c9 acbc 2b4d bfbd
00000260: 226c 62bd c4b1 5fbd 2889 98bc 0cd1 ef3c
00000270: 54d9 bbbd 7061 19bc 80d1 743b e6bb 393d
00000280: a80e 9b3c a299 51bd 5387 1dbd 82a7 9cbd
00000290: 7830 433c dcb5 fa3c 00b4 88bc ac62 f1bc
000002a0: 9719 33bd 0052 94bb 225d 9bbd b030 aabc
000002b0: bb80 b93d c034 713b 88e6 dcbc 00e1 753a
000002c0: c0e0 9aba 0b64 ac3d f7ff b03d cc5e 97bd
000002d0: b6b6 86bd 662b 023d 42ce 653d 1208 203d
000002e0: f23a 91bd 4bab a43d bca2 c33c 3c1c efbc
000002f0: 38cf bdbc 349c c53c 7d4a 873d 1850 edbc
00000300: 28d8 a5bd 491a 27bd 10a5 833b edbb a93d
00000310: 0004 0f3a 0fcf 74bd 1439 c6bd a8e9 babd
00000320: 371a c6bd 2e3b a1bd 18d4 acbd 5027 d6bc
00000330: ecd2 cc3c 135d 3bbd e004 783c 9708 3dbd
00000340: a934 58bd 115c 10bd 05e3 bc3d f03a ab3c
00000350: 90c5 e23b d2e3 273d 543a 90bc deb4 533d
00000360: d93b 3cbd 7252 103d 01b3 a73d 4856 98bc
00000370: c0d3 c5bc 3251 083d dcb3 2cbd ec3b f93c
00000380: 924f 6cbd 810e c23d 78d5 323c a125 943d
00000390: 5e71 25bd dc2e d8bc e678 5c3d 3ca3 a7bd
000003a0: f44b e63c 9e0d 03bd 03dc 98bd a0f5 cfbc
000003b0: 26c0 1b3d 0093 af3c 7179 a53d 92b7 a8bd
000003c0: 8642 383d 19cc 983d 8bca acbd 402f ecbb
000003d0: bf4c ba3d 439e 833d 61b0 c23d 935f b83d
000003e0: 2f6a 9d3d 3744 963d eceb b7bd ae12 8ebd
000003f0: 0e46 683d 79ad be3d 007f c8bc 6f3e c53d
0.026648007 0.09689181 0.07952566 0.058638774 0.0247389 0.058151476 0.03885805 -0.095772214
-0.068439305 0.05369339 -0.075053275 0.045864128 -0.05110057 -0.034052864 -0.08688246 0.02210857
0.08705715 0.055106543 0.061660253 0.03902728 0.058336608 0.079063214 -0.036788847 0.058084883
0.07409454 -0.0035933703 0.033764042 0.03733004 0.090710126 -0.009784095 -0.0740538 -0.008312695
-0.07467264 -0.032665655 0.0281327 0.092658155 -0.07544779 -0.080082886 0.09343546 -0.026418552
-0.042718697 0.089882545 0.02194503 0.093949 -0.02527 -0.07739654 -0.031692035 0.073081724
0.029753052 0.035744227 0.0037713125 0.06092576 0.0037497208 0.08203863 0.05580703 0.043132745
0.029138826 -0.0023059696 -0.040904306 -0.061008412 0.040393762 0.054741867 -0.0918095 -0.08245974
-0.09678031 0.030723296 0.0546693 0.04489345 -0.08097687 0.009934947 -0.034072496 -0.0091881305
-0.0640652 0.03479094 -0.017671436 0.03731022 0.030825056 -0.08179674 -0.08806207 -0.08862672
0.017321438 0.012634747 0.033067398 -0.06252517 -0.06177307 0.07392763 -0.0829347 -0.018475413
-0.056527358 0.055953138 0.030602075 -0.08810496 -0.037545267 -0.030482627 -0.0149896145 -0.060785476
0.0121563 0.05525536 0.04909385 -0.014000349 0.09124162 -0.012802534 0.06172154 0.04918111
-0.058419418 -0.017691165 -0.0818381 -0.05352995 -0.078837425 0.021452457 0.05083748 -0.0107463
0.05175527 0.020115867 -0.02753216 -0.022317886 -0.03593246 0.06360293 -0.020631127 -0.005590774
-0.049644362 -0.084828526 -0.026410796 -0.020426579 -0.0021725371 -0.017989345 -0.005245872 -0.039877646
0.057770602 0.018381879 0.07342803 0.010359935 0.01684855 0.01919891 0.02521813 -0.035727628
-0.09240727 0.060982488 -0.02242487 -0.045150127 -0.009355769 0.03767293 0.07003919 0.019682586
-0.048702423 -0.016273886 -0.0036609545 0.00217776 0.029498167 0.093044125 -0.021092273 -0.093408905
-0.055278905 -0.05461289 -0.018620089 0.029274486 -0.091723114 -0.00936161 0.0037356317 0.04534521
0.018927887 -0.051171906 -0.038459133 -0.07649137 0.011913411 0.030604295 -0.016687393 -0.029465996
-0.043725576 -0.0045263767 -0.07586123 -0.02077517 0.090577565 0.0036805123 -0.026965395 0.0009379536
-0.0011816248 0.08417519 0.086425714 -0.07391128 -0.06577818 0.03177967 0.056104906 0.039070196
-0.07091321 0.08040484 0.023881309 -0.029188268 -0.023170099 0.024122335 0.066060044 -0.028968856
-0.08097869 -0.04079655 0.0040174797 0.08287797 0.0005455613 -0.05976778 -0.096788555 -0.09126598
-0.09672969 -0.07872616 -0.08438891 -0.026141793 0.02500292 -0.04574306 0.015137881 -0.04615077
-0.052784596 -0.03524405 0.09222988 0.020902127 0.006920524 0.04098875 -0.017605938 0.05168616
-0.045955513 0.035234876 0.08188439 -0.01859583 -0.024148822 0.03328056 -0.042163715 0.03042408
-0.05769307 0.09475423 0.010915153 0.0723374 -0.04039132 -0.026389532 0.053826235 -0.08185431
0.02811239 -0.03199541 -0.07463839 -0.025385678 0.038025044 0.0214324 0.08079804 -0.08238138
0.044985317 0.074608035 -0.084370695 -0.007207781 0.090966694 0.064266704 0.09506298 0.09002604
0.076862685 0.0733723 -0.089805454 -0.069371566 0.056707434 0.09310431 -0.02447462 0.09631049

fc1.bias f4 [128]
00000000: 3b84 1abd f5ce 36bd a9a8 b63d 008e 3bbc
00000010: 40f7 823a 1858 15bc 58e9 1bbc 7b1a 2bbd
00000020: 6221 0c3d 8edd 18bd 788e c7bc 564d 2a3d
00000030: b448 98bd 708d 9bbc e05b 2dbc e044 4d3b
00000040: a38e 37bd b9c3 c73d 1a52 a3bd 2c74 d9bc
00000050: 9262 89bd 9508 8a3d def3 753d 6968 b33d
00000060: 5285 9abd c5f5 c43d d021 7f3c 8fdd a83d
00000070: 0651 c6bd 554e b03d 78b2 febc a1b0 c1bd
00000080: 075c 863d 86c8 1f3d 1897 473c 12be c0bd
00000090: 806f 423c 082b a7bd 2692 6cbd b673 403d
000000a0: 6570 b8bd 32e1 89bd d20b 44bd b4ec 883c
000000b0: 399e a43d fdf7 65bd 67d1 b83d 0a84 163d
000000c0: 1ecb 0f3d e57d 833d 0b5c 953d c035 c5bc
000000d0: 2046 e1bb b398 8d3d e23a 5b3d 8038 b2ba
000000e0: 1005 24bd d876 c7bd 7154 49bd 34a1 8fbc
000000f0: 801e 52bd c5d3 c53d ace3 9c3c 6ecc b7bd
00000100: 24f1 9bbc bf25 92bd a1c9 893d 716d 26bd
00000110: 1a88 24bd f9f8 a53d 5876 91bd 8ca8 ef3c
00000120: d3be 3cbd b2cb 713d 4798 9e3d 3db6 c4bd
00000130: a41f a6bd 45bb 52bd f89f a33c 8676 86bd
00000140: ecda e23c 36ca 0b3d a01c 843c 00b3 42bd
00000150: 62e8 173d 77fa 83bd 46ca acbd f030 cb3c
00000160: 3815 c0bd a9d5 ab3d 82d8 503d 68cf c7bc
00000170: 3c96 e73c b068 88bc 0082 083b 8bdc c63d
00000180: 0044 963c c252 b7bd 3718 8d3d 470b c2bd
00000190: 040a ea3c 26b5 083d 1cac 8cbd 6746 c5bd
000001a0: f2f6 143d 5c7f 85bc a2c3 433d e2d9 babd
000001b0: f65d 77bd 2fa3 a13d 18fe fbbc e6ad 4e3d
000001c0: 72f5 173d ec15 ee3c 546a 4dbd 9ef7 6fbd
000001d0: f835 b6bd 489e a7bc 909e 6ebc f606 403d
000001e0: cb27 b93d 5ece 4cbd 808c 7fba 3f60 a73d
000001f0: 63ba 853d 900f a1bd 9c56 83bc 7e2c 2a3d
-0.03772376 -0.044630963 0.08918888 -0.01144743 0.0009991899 -0.0091152415 -0.009516083 -0.0417733
0.034211524 -0.037320666 -0.024359927 0.04157766 -0.07435742 -0.018988341 -0.010580987 0.003132157
-0.044813763 0.09754128 -0.07974644 -0.026544653 -0.06708254 0.06739918 0.060047023 0.08760149
-0.0754496 0.09617189 0.015572026 0.08245384 -0.09683423 0.08608691 -0.03109096 -0.094575174
0.065605216 0.039009593 0.01218202 -0.09411253 0.011867404 -0.081625044 -0.057756566 0.04698535
-0.090058126 -0.06732406 -0.047862835 0.016714431 0.08037991 -0.056144703 0.09024315 0.036747016
0.035105817 0.06420497 0.072929464 -0.024073482 -0.0068748146 0.06913891 0.053522952 -0.001359716
-0.04004389 -0.097394645 -0.049152795 -0.017532922 -0.05129862 0.096595325 0.019151531 -0.08974539
-0.019035883 -0.07136106 0.06727911 -0.040631715 -0.04016886 0.081041284 -0.071026504 0.029255174
-0.04608042 0.05903215 0.07743888 -0.09605072 -0.08111504 -0.051448125 0.01997374 -0.06565575
0.02769228 0.03412839 0.01612693 -0.04753399 0.037086852 -0.06444257 -0.08437018 0.024803609
-0.09379047 0.08390362 0.050987728 -0.024390891 0.02826988 -0.016651481 0.002082944 0.09710034
0.018342972 -0.08951332 0.06889384 -0.09474807 0.028569229 0.03337588 -0.06868765 -0.09632569
0.036368318 -0.016296081 0.047793992 -0.09123589 -0.060392343 0.07892453 -0.03076081 0.05045881
0.03709931 0.029063188 -0.05015023 -0.058585756 -0.088970125 -0.020461217 -0.014564171 0.04688164
0.09040793 -0.050001495 -0.0009748414 0.08172654 0.06529691 -0.078642964 -0.01603251 0.041546337

fc2.weight f4 [64, 128]
00000000: 84d6 db3c 1e1b 493d 6e04 5a3d 347b a9bd
00000010: aa41 623d 4ea0 3e3d 184a 0c3d 8290 90bd
00000020: dd32 863d 1c65 803c 88e3 39bc e2cb 473d
00000030: 60d7 dd3c 42cd 3d3d d0af d23b 7ffc 863d
00000040: b032 873b 0c7f eb3c c0d6 13bc 8a39 0fbd
00000050: 98dd 85bc 29ac 873d 9063 f8bb 795d aabd
00000060: 3062 9f3b 80a3 203b 8010 d23b c4d2 a93c
00000070: 20f0 fa3c 4082 aebd 9e5d 32bd 8661 1abd
00000080: e1f1 a83d f46b 0e3d 1e2c 573d f186 a73d
00000090: 0847 afbc 9576 943d 86cb 693d 3e4b aebd
000000a0: 8cbc 81bd 1cca b03c 12d4 453d f8fc 9c3c
000000b0: 09ec 88bd 6a64 4b3d 03ad 65bd ac44 8fbd
000000c0: 909f b8bb 208d 89bc cfe6 b3bd 247f 903c
000000d0: 98c2 df3c 1690 9dbd a2b1 8cbd a69d 5a3d
000000e0: 22cb 313d b4a8 963c 26a8 9fbd ce94 6e3d
000000f0: 2b94 913d 2891 98bc c939 993d 258d 9d3d
00000100: b483 6bbd 92b4 063d abff 49bd a8fe 0e3c
00000110: 78e2 84bc d7b1 b33d b0bf edbb dc61 c63c
00000120: dd33 39bd 20b5 edbc d454 adbd 5579 9bbd
00000130: e677 663d 7019 e3bb 1b70 21bd a896 8cbc
00000140: f4f3 9b3c b031 f53b 4ed5 3dbd 983c 043c
00000150: f01f ef3b 052f a9bd cf61 8ebd 3013 a83c
00000160: 3ac2 7d3d afce 9a3d 8a56 8ebd 30a3 eb3c
00000170: 70c5 213c d9c7 7abd 1ecb 2c3d 0987 9c3d
00000180: 9856 36bc 5216 533d ebd1 53bd f619 83bd
00000190: 68f4 abbc beca 163d 49d9 a0bd 1a38 afbd
000001a0: ecf4 8a3c 809c 5c3b 8201 613d a2e6 a4bd
000001b0: 804a 92bc 58f9 3fbc e2fd 99bd c296 83bd
000001c0: bfec 14bd f3bb 19bd 9d01 aa3d 8554 b0bd
000001d0: b4c8 c1bc 747a b8bc c9e9 a93d a09f e03b
000001e0: 9031 b83b c047 9cba 80a1 71bd 2aee 70bd
000001f0: e38a 983d 30b5 bfbb 3aaa 523d 8e96 7fbd
00000200: 791d 36bd 98f1 ea3c 56d0 703d d074 5f3c
00000210: 13a6 47bd a356 a73d 8019 563a a2d6 69bd
00000220: 4d42 843d 0d03 91bd d8aa 95bd bce0 d03c
00000230: 3c8d 70bd 762f 373d c565 8fbd 0a24 673d
00000240: d661 403d d66f 63bd a621 a9bd d078 d83c
00000250: 6689 243d 3a67 393d a067 4c3c 800d be3c
00000260: dad5 383d de5e 353d c0ce e1ba e20c 92bd
00000270: 210a a13d 7b73 9b3d ee74 f6bc f257 18bd
00000280: 15e0 823d 8fe5 1fbd d452 b93c c02e e6ba
00000290: a00f ef3c 7c87 b43c 9ddd 853d a0cb e03b
000002a0: e0db 86bb 6475 a13c 72a7 83bd 8965 70bd
000002b0: 6c3b 8abd 405b 63bb f83e 08bd 7ae3 88bd
000002c0: 3e0c 90bd eea2 86bd 7abf 8fbd d0f5 2dbc
000002d0: 4ae0 663d 74c1 043d 000b 23bd 0063 94bd
000002e0: 3b34 89bd 3eea 793d 2add 553d 0064 013d
000002f0: 4faf 9a3d 6953 0ebd ebbe 8cbd 3187 11bd
00000300: ae14 473d 6f5b b03d 5a7c a0bd a25c 91bd
00000310: a4d9 90bd 9dae 87bd 6fe9 24bd c07f feba
00000320: e711 83bd e87a de3c 2886 763c faad 7e3d
00000330: e9c7 a93d 2141 84bd 1d55 a43d 1c58 89bd
00000340: e617 2b3d 0ca4 003d 1c2e ea3c eb3c aa3d
00000350: 5e46 9fbd d049 d53b d0d0 903c d227 7d3d
00000360: 00d2 38b9 6255 85bd d89c 713c e48d 1dbd
00000370: 7477 bfbc f8ae 5abc f688 45bd e167 823d
00000380: 4b5c 943d f65d 643d 83e4 ac3d fe46 1bbd
00000390: 60e0 1dbc c621 95bd 9d45 8a3d 42d7 4b3d
000003a0: 61b3 9c3d 5009 edbb 0808 84bc 78a7 ae3c
000003b0: f4f2 babc 0679 7dbd 507a ec3b ac51 8a3c
000003c0: 1a75 313d f96f 8a3d ea53 61bd 4660 a8bd
000003d0: dfc6 07bd 20af 0cbb f585 a73d 26ef 19bd
000003e0: 3708 5ebd 2f3f a13d b147 18bd a096 4fbb
000003f0: 5824 41bc 2e64 1f3d a805 59bc 6c65 aebd
0.026835687 0.049098127 0.05322688 -0.08275452 0.055238403 0.046539597 0.03425035 -0.07058813
0.0655267 0.015673213 -0.011345752 0.048778422 0.027080238 0.046338327 0.00642965 0.065911286
0.0041259155 0.028747104 -0.009023368 -0.034966983 -0.016341016 0.06624634 -0.007580228 -0.0831861
0.004864 0.0024511516 0.0064106584 0.020730384 0.030632079 -0.08520937 -0.04354631 -0.03769066
0.0824926 0.03477092 0.052532308 0.08180035 -0.021396175 0.0724918 0.05707886 -0.08510445
-0.063347906 0.021580748 0.04829795 0.019163594 -0.06685645 0.04965631 -0.0560732 -0.0699552
-0.0056342557 -0.016790926 -0.087842576 0.01763875 0.02731447 -0.07693498 -0.06869818 0.053373
0.043406613 0.01839099 -0.07795744 0.05824738 0.07108339 -0.018623903 0.07481725 0.07692937
-0.05749865 0.03288705 -0.04931609 0.008727707 -0.01622127 0.08774155 -0.007255517 0.024216585
-0.045215476 -0.029017031 -0.08463445 -0.075915016 0.056266688 -0.0069305226 -0.039413553 -0.017161682
0.019037224 0.00748273 -0.046346 0.008071087 0.0072975084 -0.082609214 -0.06952249 0.020516962
0.061952807 0.07558953 -0.069501 0.028764337 0.009873733 -0.061225746 0.042185895 0.076429434
-0.011129044 0.05153496 -0.051713865 -0.06401436 -0.020990565 0.036814444 -0.07853944 -0.085556224
0.016962491 0.0033662617 0.05493308 -0.08051802 -0.01785779 -0.011717163 -0.075191274 -0.06425239
-0.03635859 -0.037532758 0.08301089 -0.08609871 -0.023655273 -0.022519328 0.08296544 0.0068549663
0.0056211427 -0.0011923239 -0.05899191 -0.05882088 0.074483655 -0.0058504567 0.051431872 -0.06239944
-0.0444617 0.028679654 0.058792435 0.01363869 -0.048742365 0.081708215 0.0008167252 -0.057089455
0.06457958 -0.0708066 -0.073079765 0.025497787 -0.05872844 0.044722997 -0.07001833 0.056430854
0.046968304 -0.055526577 -0.08258371 0.026424795 0.040170096 0.04526446 0.012475878 0.023199797
0.04512582 0.044279926 -0.0017227754 -0.071313635 0.0786326 0.075903855 -0.030085053 -0.037193246
0.063903965 -0.039037284 0.022622503 -0.001756154 0.029182255 0.02203726 0.0653641 0.0068602115
-0.0041155666 0.019709297 -0.06428422 -0.05869058 -0.06749615 -0.003469184 -0.033263177 -0.06684013
-0.07033585 -0.06574045 -0.07018943 -0.010617688 0.056366242 0.032411054 -0.039805412 -0.07245445
-0.06699415 0.061014406 0.05221287 0.031589508 0.07552969 -0.034747515 -0.06872352 -0.03552932
0.048603706 0.086111896 -0.07836218 -0.070977464 -0.07072762 -0.06625102 -0.040261682 -0.0019416735
-0.06399899 0.027158216 0.015046634 0.062177636 0.08290083 -0.06457735 0.080240466 -0.06706259
0.04177084 0.031406447 0.02858644 0.083124004 -0.07777093 0.0065090433 0.017677695 0.061805554
-0.00017625839 -0.06510426 0.014746867 -0.038465396 -0.02337239 -0.01334738 -0.04822632 0.063674696
0.07244166 0.05575367 0.08442023 -0.0379095 -0.009636015 -0.072818324 0.06751559 0.049765833
0.07651401 -0.007233776 -0.01611711 0.02132009 -0.022820927 -0.061882995 0.007216729 0.016884647
0.043324567 0.06759638 -0.055011667 -0.08221488 -0.033148643 -0.0021466687 0.08179847 -0.037581585
-0.054207053 0.078733794 -0.037177745 -0.0031675473 -0.01178845 0.0389139 -0.013245977 -0.085154384

fc2.bias f4 [64]
00000000: 044d 01bd 02b2 a3bd c2c8 2a3d e0df 88bc
00000010: e8bc 72bc 38b2 4fbd 100e 80bd f2b3 7e3d
00000020: 00b9 7f3b 9018 da3b 4e15 263d b0a6 253c
00000030: 9467 53bd c085 34bc afd2 87bd c251 86bd
00000040: 38af 20bd b6e4 3ebd d6e0 b3bd 98c3 473c
00000050: 95ed 823d 79f5 813d 3cc1 053d 4c3e 8ebd
00000060: 4300 813d 6069 babb faf1 403d 9667 743d
00000070: 0ae0 98bd a0d3 4e3c 6f81 883d c9b0 ab3d
00000080: 9c20 87bc 88b4 fdbc 0640 233d ccc2 63bd
00000090: bccf 073d 8e9b 1a3d df45 a03d 6ae8 303d
000000a0: cec7 6e3d 4aca 1d3d 510e b43d 6104 67bd
000000b0: df44 66bd 57fb adbd 8656 283d f98d a5bd
000000c0: 49ea b33d 741a abbc c1c4 7cbd 0730 9ebd
000000d0: 4400 70bd 5851 693c 581f 89bd 1cd1 89bd
000000e0: 8089 e9bc f66a 3bbd 40de 843b 4af6 a9bd
000000f0: a2ac 35bd 66da 74bd bef9 1c3d 7f72 b03d
-0.03156759 -0.07992937 0.041695364 -0.016708314 -0.014815547 -0.050707072 -0.06252682 0.062183328
0.003902018 0.00665576 0.04054766 0.010110542 -0.05161245 -0.011018217 -0.066319816 -0.06558563
-0.0392296 -0.046604834 -0.087831184 0.012192629 0.063929714 0.06345648 0.032654986 -0.06945476
0.06298878 -0.005688831 0.047105767 0.0596691 -0.07464607 0.0126236975 0.066653125 0.083833285
-0.016495042 -0.030969873 0.03985598 -0.055605695 0.033157095 0.037746005 0.07825827 0.043190397
0.058296017 0.038522996 0.08791793 -0.05640066 -0.056218024 -0.08495205 0.04109814 -0.0808372
0.08784921 -0.020886637 -0.061711077 -0.07724004 -0.058594003 0.014240585 -0.066954315 -0.067293376
-0.028507948 -0.045756303 0.0040548146 -0.08298929 -0.04435409 -0.059778593 0.03832411 0.086155884

fc3.weight f4 [3, 64]
00000000: a04b f5bd 906c da3c 10f9 4c3c 98f4 acbd
00000010: 24d9 393d 145c 5d3d 6020 fe3d 6817 b5bd
00000020: 8491 e8bd d62e fe3d 1833 d5bd 44e2 713d
00000030: f6f8 9fbd 6263 80bd 2088 eb3b 244e d0bd
00000040: 148b 493d c066 7e3c dc24 953d 14e3 02bd
00000050: b04a 7f3d eef1 fcbd 8037 a23c 5c00 cebd
00000060: 964b cdbd c0ca d8bb e813 f2bd 18ed 78bd
00000070: 48c9 cc3d f828 a13c 60e1 ddbb cc91 55bd
00000080: f8e2 88bc b6a6 fe3d f46b 493d 1e15 eebd
00000090: 14a0 623d 1841 b23c 2c05 243d 30dc 1bbd
000000a0: 5c04 4f3d f265 8abd a8df f13d febe d33d
000000b0: a0e6 ab3b 207f c2bb 5c61 643d d280 d23d
000000c0: 5819 4bbd a2e2 96bd 80b6 4f3b d4c0 d8bd
000000d0: 5666 dabd 4e90 8ebd 9a08 9d3d 4440 86bd
000000e0: 567a b93d 126c ebbd 3294 b63d 5c5b 5e3d
000000f0: 10d0 44bc 202c 4abd 10fe 6c3c 809a db3c
00000100: 40a2 03bc f803 d7bc 2861 0bbd d6bb f33d
00000110: 32a0 d33d a43d b43d ca96 adbd 08ac 6b3d
00000120: 0c2b 783d 3472 213d bca4 703d c6af d93d
00000130: cc54 893d 98cb 7fbd 40d2 963c ccbe 003d
00000140: 4871 ac3c 0cc0 8d3d 56b5 d6bd 805b 1dbb
00000150: 469a bebd 80bb adbd c41c 4d3d 1aed cfbd
00000160: 72ac 80bd 689d be3c 3879 d13d 80fa 353b
00000170: 74d5 c1bd b839 f13d 5844 f2bc 02b3 9bbd
00000180: b42b 693d cc9d 91bd 2260 a8bd 0022 4c3b
00000190: c08f babb 8859 aa3d 5081 36bd f4f0 f33d
000001a0: d891 d5bc bcc3 793d 08cb 283d 4abc ef3d
000001b0: 24ba 37bd ce3e 953d ba6d eabd e040 01bc
000001c0: 68a0 debd 06e4 8ebd c0bb efbb 205c 983c
000001d0: c89b 9c3d d498 67bd fc45 f6bd 9c96 e93d
000001e0: fcc3 50bd 5841 783d 76b6 8c3d 10d5 e1bd
000001f0: 9454 593d 1074 a2bc a451 b73d 1cd4 aabd
00000200: 0090 e139 f0e1 093c ceb5 8d3d 9238 a1bd
00000210: 88a8 b03c d4cc 66bd 9483 8b3d 94d6 35bd
00000220: 1050 82bc a8a3 c4bd 00c7 6cbd acca 10bd
00000230: 86f4 fdbd 68ed 513d 727b ee3d d0f7 d0bc
00000240: f8ed 24bd dc16 03bd 4c12 163d b403 7fbd
00000250: 3858 673d 98a3 e9bc c426 66bd 70fb e13c
00000260: 62e3 ee3d 8e03 8c3d f0d2 ff3d c083 dabb
00000270: 0050 7539 a456 b5bd 2862 0a3d 8093 e13a
00000280: 84db 54bd ce5e 843d 4063 9abb 70d1 f5bd
00000290: e883 513d 00c9 99ba 381a 0dbd 9ad3 fdbd
000002a0: 0ac4 c43d 6467 a03d 20be c13d 1073 06bc
000002b0: acd8 b4bd 320d 81bd f4f5 5d3d a095 a9bb
000002c0: c8b3 933c 54b6 8b3d c243 973d e826 ef3c
000002d0: aced fbbd 1ca2 233d 507f 803c 745b f13d
000002e0: b86d 2ebd d475 4b3d fa0b e23d 8ca5 b4bd
000002f0: fe56 f43d 20cd f9bd b246 92bd ba78 983d
-0.11977315 0.026663095 0.012510553 -0.0844509 0.045373097 0.05404289 0.12408519 -0.08842355
-0.1135588 0.12411277 -0.10410136 0.059053674 -0.078111574 -0.06268956 0.007187858 -0.10171154
0.0492049 0.015527427 0.07282421 -0.03195484 0.062327087 -0.12350832 0.019801855 -0.10058662
-0.100241825 -0.0066159666 -0.11820203 -0.060772985 0.09999329 0.019672856 -0.0067712516 -0.052140996
-0.01670979 0.12434141 0.049175218 -0.116251215 0.055328444 0.021759555 0.040043995 -0.038051784
0.050541267 -0.06757726 0.11810237 0.10339163 0.0052459985 -0.0059355646 0.05575691 0.10278477
-0.049584717 -0.073674455 0.0031694472 -0.10583654 -0.1066405 -0.06961118 0.07667656 -0.065552264
0.09056537 -0.11495222 0.08914985 0.054286346 -0.012012497 -0.049358487 0.01446487 0.02680707
-0.008034289 -0.02624701 -0.034028202 0.11901061 0.10333289 0.088008195 -0.08476026 0.05753711
0.060587928 0.039415553 0.058750853 0.10629229 0.06705627 -0.06245002 0.018410802 0.031431958
0.02105011 0.06921396 -0.10483806 -0.0024010837 -0.09306769 -0.084830284 0.05007626 -0.101526454
-0.06282891 0.023268417 0.10228199 0.0027767718 -0.09464541 0.11778587 -0.029573604 -0.076025024
0.056926444 -0.071101755 -0.08221461 0.0031148195 -0.005693406 0.08317858 -0.044556916 0.119111925
-0.02607052 0.060977682 0.04120925 0.11705835 -0.044855252 0.0728737 -0.1144671 -0.007889003
-0.10870439 -0.06977086 -0.0073160827 0.018598616 0.076469004 -0.056542233 -0.12025067 0.114056796
-0.050968155 0.06060919 0.06870739 -0.110269666 0.053059176 -0.019830734 0.089511186 -0.08341238
0.00043022633 0.008415684 0.06919442 -0.07872118 0.021564737 -0.056347683 0.06812206 -0.04439409
-0.015907317 -0.096015275 -0.05780697 -0.035349533 -0.12400155 0.0512518 0.11644639 -0.025508791
-0.040266007 -0.032004222 0.036638543 -0.06225939 0.056480616 -0.02852039 -0.056189314 0.027585715
0.116644636 0.068366155 0.12491405 -0.006668538 0.00023394823 -0.08854416 0.033785015 0.0017210096
-0.05196716 0.06463395 -0.0047115386 -0.12002838 0.051151186 -0.0011732876 -0.034448832 -0.123938754
0.09607704 0.0783222 0.094600916 -0.008206144 -0.088303894 -0.06301345 0.054189637 -0.0051753074
0.018030062 0.06821886 0.07385971 0.029193357 -0.12301192 0.03994952 0.015685707 0.117850214
-0.042585105 0.049672917 0.110374406 -0.08820638 0.11930655 -0.121973276 -0.0714239 0.07444902

fc3.bias f4 [3]
00000000: b2bc e3bd 4040 dc3b 9c78 fc3d
-0.11119975 0.0067215264 0.12327692
